…
perspective=0.0, flipud=0.0, fliplr=0.5, mosaic=1.0, mixup=0.0, copy_paste=0.0
[34m[1mClearML: [0mrun 'pip install clearml' to automatically track, visualize and remotely train YOLOv5 🚀 in ClearML
[34m[1mComet: [0mrun 'pip install comet_ml' to automatically track and visualize YOLOv5 🚀 runs in Comet
[34m[1mTensorBoard: [0mStart with 'tensorboard --logdir /users/vutomi/Source_Detection/YOLOs/outputs/runs', view at http://localhost:6006/

                 from  n    params  module                                  arguments                     
  0                -1  1      3520  yolov5.models.common.Conv               [3, 32, 6, 2, 2]              
  1                -1  1     18560  yolov5.models.common.Conv               [32, 64, 3, 2]                
  2                -1  1     18816  yolov5.models.common.C3                 [64, 64, 1]                   
  3                -1  1     73984  yolov5.models.common.Conv               [64, 128, 3, 2]               
  4                -1  2    115712  yolov5.models.common.C3                 [128, 128, 2]                 
  5                -1  1    295424  yolov5.models.common.Conv               [128, 256, 3, 2]              
  6                -1  3    625152  yolov5.models.common.C3                 [256, 256, 3]                 
  7                -1  1   1180672  yolov5.models.common.Conv               [256, 512, 3, 2]              
  8                -1  1   1182720  yolov5.models.common.C3                 [512, 512, 1]                 
  9                -1  1    656896  yolov5.models.common.SPPF               [512, 512, 5]                 
 10                -1  1    131584  yolov5.models.common.Conv               [512, 256, 1, 1]              
 11                -1  1         0  torch.nn.modules.upsampling.Upsample    [None, 2, 'nearest']          
 12           [-1, 6]  1         0  yolov5.models.common.Concat             [1]                           
 13                -1  1    361984  yolov5.models.common.C3                 [512, 256, 1, False]          
 14                -1  1     33024  yolov5.models.common.Conv               [256, 128, 1, 1]              
 15                -1  1         0  torch.nn.modules.upsampling.Upsample    [None, 2, 'nearest']          
 16           [-1, 4]  1         0  yolov5.models.common.Concat             [1]                           
 17                -1  1     90880  yolov5.models.common.C3                 [256, 128, 1, False]          
 18                -1  1    147712  yolov5.models.common.Conv               [128, 128, 3, 2]              
 19          [-1, 14]  1         0  yolov5.models.common.Concat             [1]                           
 20                -1  1    296448  yolov5.models.common.C3                 [256, 256, 1, False]          
 21                -1  1    590336  yolov5.models.common.Conv               [256, 256, 3, 2]              
 22          [-1, 10]  1         0  yolov5.models.common.Concat             [1]                           
 23                -1  1   1182720  yolov5.models.common.C3                 [512, 512, 1, False]          
 24      [17, 20, 23]  1     16182  yolov5.models.yolo.Detect               [1, [[10, 13, 16, 30, 33, 23], [30, 61, 62, 45, 59, 119], [116, 90, 156, 198, 373, 326]], [128, 256, 512]]
custom_YOLOv5s summary: 214 layers, 7022326 parameters, 7022326 gradients, 15.9 GFLOPs

Transferred 348/349 items from /users/vutomi/Source_Detection/YOLOs/training_models/yolov5/runs/train/exp5/weights/best.pt
…
